models/model.onnx (onnx, 444096 bytes, 9 tensors)

model.classification_heads.event.classifier.bias f4 [7]
0	0xbd2e943e	-0.042621844
1	0x3d28e076	0.041229688
2	0xbc8752e7	-0.016519023
3	0xbd4e2616	-0.05032929
4	0x3ceeffd2	0.029174719
5	0x3ae249fe	0.0017264483
6	0xbd107ccc	-0.035275266

model.classification_heads.intent.classifier.bias f4 [4]
0	0xbbfed207	-0.007776502
1	0x3cda9b5a	0.026685406
2	0xba39c32c	-0.0007086273
3	0x3d3cad87	0.046063926

model.classification_heads.time.classifier.bias f4 [5]
0	0xbb98c77c	-0.0046624523
1	0x3d098f0d	0.03358369
2	0x3c197435	0.009366085
3	0xbd34f392	-0.0441776
4	0x3ad5115f	0.0016255787

model.classification_heads.condition.classifier.bias f4 [35]
0	0xbce78c0c	-0.028265022
1	0x3d79e42b	0.061008614
2	0x3c51a522	0.012795718
3	0xbd33f888	-0.04393819
4	0x3d56c9c9	0.05243853
5	0x3d789661	0.060690288
6	0x3cdf2183	0.02723766
7	0xbd438f27	-0.047743943
8	0x3d378e4d	0.044813443
9	0xbd17480a	-0.036933936
10	0xbd5c3a94	-0.053766802
11	0x3d661673	0.056173753
12	0x3d4c96f7	0.04994866
13	0x3d449935	0.047997672
14	0xbc5c3def	-0.0134425005
15	0xbd31aae6	-0.043375872
16	0x3d11f5da	0.035634853
17	0x3cf25362	0.029580776
18	0x3d1f162d	0.038839508
19	0x3b81e5ac	0.0039641466
20	0xbcc2f6b8	-0.023799285
21	0xbd4bbfde	-0.049743526
22	0xbcad01e4	-0.021119066
23	0xbd2ac9d5	-0.04169639
24	0x3ca2d9c7	0.019879235
25	0xbd3a1bdd	-0.04543673
26	0xbcf5ae32	-0.02999029
27	0x3c517488	0.012784131
28	0xbca48d50	-0.020086914
29	0xbc646d3d	-0.01394206
30	0x3d66bd39	0.0563328
31	0xbcd1e87a	-0.025623549
32	0xbd59ac98	-0.053143114
33	0xbc4be8ae	-0.012445612
34	0xbc837901	-0.01604891

model.classification_heads.agent.classifier.bias f4 [5]
0	0x3d6108b7	0.05493995
1	0xbd64e9e9	-0.055887137
2	0x3d3aa2b6	0.04556533
3	0xbc25b68b	-0.010114322
4	0xbc93bf12	-0.018035445

model.classification_heads.object.classifier.bias f4 [5]
0	0x3d368cec	0.044567987
1	0xbbf18d8c	-0.00737161
2	0xbd3398de	-0.043846957
3	0x3cb2237c	0.021745436
4	0xbd5829c6	-0.052774213

model.classification_heads.location.classifier.bias f4 [6]
0	0x3c4c95f3	0.012486923
1	0xbd32c265	-0.04364242
2	0xbcdd4a0f	-0.027012853
3	0xbcbd5e4d	-0.023116255
4	0x3d0bc992	0.03412778
5	0x3d3fc07d	0.04681443

model.classification_heads.purpose.classifier.bias f4 [2]
0	0x3d3fc7a7	0.046821263
1	0xba164dee	-0.00057336583

model.classification_heads.modifier.classifier.bias f4 [4]
0	0xbc9a3f50	-0.018829018
1	0xbd8cc15c	-0.06872818
2	0xbc23d67c	-0.0099998675
3	0x3d4dfbb0	0.050288856
